…
(1080, 7, 2, 69) (1080, 1, 69)
feature: (1080, 7, 2, 69) label: (1080, 1, 69) time: (1080, 32) high feature: (270, 7, 2, 69) high label: (270, 1, 69)
graph_x: (1080, 7, 2, 69) high_graph_x: (270, 7, 2, 69)
After concatenate (4584, 7, 2, 544) (4584, 1, 544)
After concatenate (1080, 7, 2, 544) (1080, 1, 544)
After concatenate (1080, 7, 2, 544) (1080, 1, 544)
After concatenate (high) (270, 7, 2, 544) (270, 1, 544)
use tkg model 100_64_0.001_0.0_68_500_0.4_32_10_0.68_v5_30.chkpnt
use normal_
use normal_
Let's use 2 GPUs!
Mixtrue model DataParallel(
  (module): ST_M3ZI(
    (trans_seg): Sequential(
      (0): Linear(in_features=20, out_features=64, bias=True)
      (1): ReLU()
      (2): Linear(in_features=64, out_features=20, bias=True)
    )
    (trans_zone): Sequential(
      (0): Linear(in_features=20, out_features=64, bias=True)
      (1): ReLU()
      (2): Linear(in_features=64, out_features=20, bias=True)
    )
    (mmoe): MMOE(
      (softmax): Softmax(dim=1)
      (experts): ModuleList(
        (0): Expert(
          (fc1): Linear(in_features=109, out_features=256, bias=True)
          (fc2): Linear(in_features=256, out_features=64, bias=True)
          (relu): ReLU()
          (dropout): Dropout(p=0.3, inplace=False)
        )
        (1): Expert(
          (fc1): Linear(in_features=109, out_features=256, bias=True)
          (fc2): Linear(in_features=256, out_features=64, bias=True)
          (relu): ReLU()
          (dropout): Dropout(p=0.3, inplace=False)
        )
        (2): Expert(
          (fc1): Linear(in_features=109, out_features=256, bias=True)
          (fc2): Linear(in_features=256, out_features=64, bias=True)
          (relu): ReLU()
          (dropout): Dropout(p=0.3, inplace=False)
        )
        (3): Expert(
          (fc1): Linear(in_features=109, out_features=256, bias=True)
          (fc2): Linear(in_features=256, out_features=64, bias=True)
          (relu): ReLU()
          (dropout): Dropout(p=0.3, inplace=False)
        )
      )
    )
    (STGN): STGN(
      (road_gcn_seg): ModuleList(
        (0): GCN_Layer(
          (gcn_layer): Sequential(
            (0): Linear(in_features=20, out_features=32, bias=True)
            (1): ReLU()
          )
        )
        (1): GCN_Layer(
          (gcn_layer): Sequential(
            (0): Linear(in_features=32, out_features=32, bias=True)
            (1): ReLU()
          )
        )
      )
      (zone_gcn): ModuleList(
        (0): GCN_Layer(
          (gcn_layer): Sequential(
            (0): Linear(in_features=20, out_features=32, bias=True)
            (1): ReLU()
          )
        )
        (1): GCN_Layer(
          (gcn_layer): Sequential(
            (0): Linear(in_features=32, out_features=32, bias=True)
            (1): ReLU()
          )
        )
      )
      (risk_gcn_seg): ModuleList(
        (0): GCN_Layer(
          (gcn_layer): Sequential(
            (0): Linear(in_features=20, out_features=32, bias=True)
            (1): ReLU()
          )
        )
        (1): GCN_Layer(
          (gcn_layer): Sequential(
            (0): Linear(in_features=32, out_features=32, bias=True)
            (1): ReLU()
          )
        )
      )
      (risk_gcn_zone): ModuleList(
        (0): GCN_Layer(
          (gcn_layer): Sequential(
            (0): Linear(in_features=20, out_features=32, bias=True)
            (1): ReLU()
          )
        )
        (1): GCN_Layer(
          (gcn_layer): Sequential(
            (0): Linear(in_features=32, out_features=32, bias=True)
            (1): ReLU()
          )
        )
      )
      (poi_gcn_seg): ModuleList(
        (0): GCN_Layer(
          (gcn_layer): Sequential(
            (0): Linear(in_features=20, out_features=32, bias=True)
            (1): ReLU()
          )
        )
        (1): GCN_Layer(
          (gcn_layer): Sequential(
            (0): Linear(in_features=32, out_features=32, bias=True)
            (1): ReLU()
          )
        )
      )
      (poi_gcn_zone): ModuleList(
        (0): GCN_Layer(
          (gcn_layer): Sequential(
            (0): Linear(in_features=20, out_features=32, bias=True)
            (1): ReLU()
          )
        )
        (1): GCN_Layer(
          (gcn_layer): Sequential(
            (0): Linear(in_features=32, out_features=32, bias=True)
            (1): ReLU()
          )
        )
      )
      (softmax): Softmax(dim=1)
      (de_simple): DE_SimplE(
        (ent_embs_h): Embedding(6424, 68)
        (ent_embs_t): Embedding(6424, 68)
        (rel_embs_f): Embedding(9, 100)
        (rel_embs_i): Embedding(9, 100)
        (m_freq_h): Embedding(6424, 32)
        (m_freq_t): Embedding(6424, 32)
        (d_freq_h): Embedding(6424, 32)
        (d_freq_t): Embedding(6424, 32)
        (y_freq_h): Embedding(6424, 32)
        (y_freq_t): Embedding(6424, 32)
        (freq_h): Embedding(6424, 32)
        (freq_t): Embedding(6424, 32)
        (m_phi_h): Embedding(6424, 32)
        (m_phi_t): Embedding(6424, 32)
        (d_phi_h): Embedding(6424, 32)
        (d_phi_t): Embedding(6424, 32)
        (y_phi_h): Embedding(6424, 32)
        (y_phi_t): Embedding(6424, 32)
        (phi_h): Embedding(6424, 32)
        (phi_t): Embedding(6424, 32)
        (m_amps_h): Embedding(6424, 32)
        (m_amps_t): Embedding(6424, 32)
        (d_amps_h): Embedding(6424, 32)
        (d_amps_t): Embedding(6424, 32)
        (y_amps_h): Embedding(6424, 32)
        (y_amps_t): Embedding(6424, 32)
        (amps_h): Embedding(6424, 32)
        (amps_t): Embedding(6424, 32)
      )
      (depth_seg_gcn): ModuleList(
        (0): GCN_Layer(
          (gcn_layer): Sequential(
            (0): Linear(in_features=20, out_features=32, bias=True)
            (1): ReLU()
          )
        )
        (1): GCN_Layer(
          (gcn_layer): Sequential(
            (0): Linear(in_features=32, out_features=32, bias=True)
            (1): ReLU()
          )
        )
      )
      (depth_zone_gcn): ModuleList(
        (0): GCN_Layer(
          (gcn_layer): Sequential(
            (0): Linear(in_features=20, out_features=32, bias=True)
            (1): ReLU()
          )
        )
        (1): GCN_Layer(
          (gcn_layer): Sequential(
            (0): Linear(in_features=32, out_features=32, bias=True)
            (1): ReLU()
          )
        )
      )
      (depth_poi_gcn_seg): ModuleList(
        (0): GCN_Layer(
          (gcn_layer): Sequential(
            (0): Linear(in_features=20, out_features=32, bias=True)
            (1): ReLU()
          )
        )
        (1): GCN_Layer(
          (gcn_layer): Sequential(
            (0): Linear(in_features=32, out_features=32, bias=True)
            (1): ReLU()
          )
        )
      )
      (depth_poi_gcn_zone): ModuleList(
        (0): GCN_Layer(
          (gcn_layer): Sequential(
            (0): Linear(in_features=20, out_features=32, bias=True)
            (1): ReLU()
          )
        )
        (1): GCN_Layer(
          (gcn_layer): Sequential(
            (0): Linear(in_features=32, out_features=32, bias=True)
            (1): ReLU()
          )
        )
      )
      (depth_risk_gcn_seg): ModuleList(
        (0): GCN_Layer(
          (gcn_layer): Sequential(
            (0): Linear(in_features=20, out_features=32, bias=True)
            (1): ReLU()
          )
        )
        (1): GCN_Layer(
          (gcn_layer): Sequential(
            (0): Linear(in_features=32, out_features=32, bias=True)
            (1): ReLU()
          )
        )
      )
      (depth_risk_gcn_zone): ModuleList(
        (0): GCN_Layer(
          (gcn_layer): Sequential(
            (0): Linear(in_features=20, out_features=32, bias=True)
            (1): ReLU()
          )
        )
        (1): GCN_Layer(
          (gcn_layer): Sequential(
            (0): Linear(in_features=32, out_features=32, bias=True)
            (1): ReLU()
          )
        )
      )
      (attention_seg): MultiHeadedAttention(
        (linear_layers): ModuleList(
          (0): Linear(in_features=96, out_features=96, bias=True)
          (1): Linear(in_features=96, out_features=96, bias=True)
          (2): Linear(in_features=96, out_features=96, bias=True)
        )
        (output_linear): Linear(in_features=96, out_features=96, bias=True)
        (attention): Attention()
        (dropout): Dropout(p=0.3, inplace=False)
      )
      (feed_forward_seg): PositionwiseFeedForward(
        (w_1): Linear(in_features=96, out_features=384, bias=True)
        (w_2): Linear(in_features=384, out_features=96, bias=True)
        (dropout): Dropout(p=0.3, inplace=False)
        (activation): GELU()
      )
      (input_sublayer_seg): SublayerConnection(
        (norm): LayerNorm()
        (dropout): Dropout(p=0.3, inplace=False)
      )
      (output_sublayer_seg): SublayerConnection(
        (norm): LayerNorm()
        (dropout): Dropout(p=0.3, inplace=False)
      )
      (dropout_seg): Dropout(p=0.3, inplace=False)
      (attention_zone): MultiHeadedAttention(
        (linear_layers): ModuleList(
          (0): Linear(in_features=96, out_features=96, bias=True)
          (1): Linear(in_features=96, out_features=96, bias=True)
          (2): Linear(in_features=96, out_features=96, bias=True)
        )
        (output_linear): Linear(in_features=96, out_features=96, bias=True)
        (attention): Attention()
        (dropout): Dropout(p=0.3, inplace=False)
      )
      (feed_forward_zone): PositionwiseFeedForward(
        (w_1): Linear(in_features=96, out_features=384, bias=True)
        (w_2): Linear(in_features=384, out_features=96, bias=True)
        (dropout): Dropout(p=0.3, inplace=False)
        (activation): GELU()
      )
      (input_sublayer_zone): SublayerConnection(
        (norm): LayerNorm()
        (dropout): Dropout(p=0.3, inplace=False)
      )
      (output_sublayer_zone): SublayerConnection(
        (norm): LayerNorm()
        (dropout): Dropout(p=0.3, inplace=False)
      )
      (dropout_zone): Dropout(p=0.3, inplace=False)
      (graph_gru_seg): GRU(96, 64, batch_first=True, dropout=0.3)
      (graph_att_fc1_seg): Linear(in_features=64, out_features=1, bias=True)
      (graph_att_fc2_seg): Linear(in_features=32, out_features=7, bias=True)
      (graph_att_softmax_seg): Softmax(dim=-1)
      (graph_gru_zone): GRU(96, 64, batch_first=True, dropout=0.3)
      (graph_att_fc1_zone): Linear(in_features=64, out_features=1, bias=True)
      (graph_att_fc2_zone): Linear(in_features=32, out_features=7, bias=True)
      (graph_att_softmax_zone): Softmax(dim=-1)
      (message_share_seg): Sequential(
        (0): Linear(in_features=64, out_features=64, bias=True)
        (1): ReLU()
      )
      (message_share_zone): Sequential(
        (0): Linear(in_features=64, out_features=64, bias=True)
        (1): ReLU()
      )
    )
    (fcn_seg): Sequential(
      (0): Linear(in_features=475, out_features=118, bias=True)
      (1): ReLU()
      (2): Linear(in_features=118, out_features=475, bias=True)
    )
    (fcn_zone): Sequential(
      (0): Linear(in_features=69, out_features=17, bias=True)
      (1): ReLU()
      (2): Linear(in_features=17, out_features=69, bias=True)
    )
    (hypernet_seg): Hypernet(
      (activation): Tanh()
      (first_linear): Linear(in_features=64, out_features=128, bias=False)
      (linear_layers): ModuleList()
    )
    (hypernet_zone): Hypernet(
      (activation): Tanh()
      (first_linear): Linear(in_features=64, out_features=128, bias=False)
      (linear_layers): ModuleList()
    )
    (get_pai): Conv2d(64, 1, kernel_size=(1, 1), stride=(1, 1))
  )
)
Number of Parameters: 6440626
NAN cnt: 6601
global step: 1, epoch: 1, batch: 1, training loss: 3629.500488, time: 26.21s
global step: 2, epoch: 1, batch: 2, training loss: 3045.110840, time: 2.29s
global step: 3, epoch: 1, batch: 3, training loss: 1583.801636, time: 2.28s
global step: 4, epoch: 1, batch: 4, training loss: 1781.878418, time: 2.22s
global step: 5, epoch: 1, batch: 5, training loss: 1797.283447, time: 2.31s
…
